data.pth (torch, 10282 bytes, 6 tensors)

l1.weight f4 [8, 135]
000000 5b 30 1d bf 9b 9d 96 3d ed 56 84 3f a4 2d bd 3e
       -0.6140191 0.073542796 1.0339028 0.36948884
000010 57 87 28 3d 94 5c d5 bc 6e 89 76 3c 97 4c 65 3f
       0.041144695 -0.026045121 0.015047414 0.8956999
000020 be 71 df 3e c3 3e 80 be 32 f0 28 be 21 04 8c be
       0.43641466 -0.25047883 -0.16497877 -0.273469
000030 ca 5f 1b 3e 94 7f c7 be 22 5a 8d be fa dc 83 3e
       0.1517326 -0.38964522 -0.27607828 0.2575453
000040 ad 9d 8e 3f 5e 68 8e be 10 8d 7d 3f 62 bb a6 3f
       1.1141869 -0.27814 0.9904337 1.3025935
000050 37 d6 ca 3f 79 6f ad 3f 9a 81 d6 3c cf 42 b6 be
       1.5846623 1.3549644 0.026184846 -0.35597846
000060 01 58 4a be c1 ed 65 3f 9e 23 82 3e 4a 8c 4b bf
       -0.19760133 0.8981591 0.254178 -0.7951094
000070 e7 e5 a9 3f 0d ed 22 3f 3a ca ab be 11 b5 60 bf
       1.3273286 0.6364296 -0.33552724 -0.87776285
000080 85 c5 74 bf b7 d4 86 3f 3b 76 32 3f be 4f 84 3f
       -0.9561389 1.0533665 0.69711655 1.0336835
000090 85 a7 d1 3d d3 54 49 be 81 00 4d 3f 09 02 62 3f
       0.1023703 -0.19661264 0.80078894 0.88284355
0000a0 3a d4 82 bd 31 e3 43 3e fa a0 ac be a3 06 d2 be
       -0.06388135 0.19129635 -0.33716565 -0.41020688
0000b0 dd 33 d0 3e 95 7e 5c 3f 9c 67 37 be 2e 7d 20 be
       0.4066457 0.8613065 -0.17910618 -0.15672752
0000c0 29 7a 8f be 05 2c 26 be ac c1 d5 3e 6a f2 2b bb
       -0.28022888 -0.1622773 0.41749322 -0.002623702
0000d0 df 35 b3 3f 64 aa 85 bf f3 71 7b 3f c7 ea d2 bd
       1.4000815 -1.0442624 0.9822075 -0.102986865
0000e0 1b 51 c5 be b0 e9 d8 3f 51 8c 2e 3f c1 e0 68 3f
       -0.3853844 1.6946316 0.68182856 0.9096795
0000f0 cb fa bf be cc ba d9 be 96 54 07 3d 60 99 8c be
       -0.37496027 -0.42525327 0.03303965 -0.27460766
000100 6a d1 2c bd 14 a1 56 3e 9c e5 c8 3f 67 8a 7e be
       -0.0421919 0.20959884 1.5695071 -0.24857484
000110 a0 98 82 bf a2 49 8c 3f 0b 92 5b 3d 3d 76 80 3f
       -1.0202827 1.0959971 0.053606074 1.0036083
000120 80 04 29 3f 24 bc 92 3e b9 56 d4 3f c1 a3 be bc
       0.6602249 0.28659165 1.6588966 -0.023271443
000130 5d 9b 95 3f b3 e5 b3 3f 53 61 0e bd ba 5b 5a 3f
       1.1688038 1.4054474 -0.034760784 0.85296214
000140 94 8d 64 3f bf 3f f0 be 4f 5b ce be 95 aa 8f 3f
       0.8927853 -0.46923634 -0.40304038 1.1223933
000150 8d 74 58 bf 1c 5c 2b bd 72 3f 3a bd 84 f4 8b 3f
       -0.8455284 -0.04183589 -0.045470662 1.0933995
000160 0a be 94 be 53 71 c6 3f bc 51 b8 3e 32 d8 4f 3f
       -0.29051238 1.5503334 0.35999858 0.8118926
000170 19 eb 75 3e 90 54 20 3f df ea 28 3f 3a ff e6 3d
       0.24015464 0.6262903 0.65983385 0.11279149
000180 1d f4 7e 3f fa ea 70 3f a1 14 7f 3d e4 6f 41 3f
       0.9959124 0.94108546 0.062275533 0.75561357
000190 50 e9 d7 3f 9f 2f 97 be fe 89 9c 3f 96 01 a5 be
       1.6868076 -0.2952852 1.2229612 -0.32227772
0001a0 e2 ab 77 3f 3a 7d fe 3f 22 34 08 be 2e 73 83 3f
       0.9674665 1.9881966 -0.13301137 1.0269525
0001b0 af f3 cc be 8e e6 50 be 33 48 db 3e 26 b1 8f be
       -0.40029666 -0.2040045 0.4282852 -0.2806484
0001c0 8c 24 1f bf 15 35 53 bf ee b3 b1 3d 52 80 9a bf
       -0.6216514 -0.8250287 0.08676897 -1.207041
0001d0 0b 22 8e be b2 05 66 3f 63 e0 a4 3f dc 67 0f bf
       -0.27760348 0.8985244 1.2880977 -0.5601785
0001e0 24 f7 95 3f e2 2a 08 bf ae ab 9d 3f 86 09 91 be
       1.1716046 -0.53190434 1.2318017 -0.28327578
0001f0 b9 e5 1b be 64 0e ec 3e 80 74 e2 3c c1 29 12 3f
       -0.15224351 0.4610473 0.027643442 0.5709496
000200 8f 72 b8 3f a7 17 89 bd 36 4f 87 3f e9 4c bd 3e
       1.440996 -0.066939645 1.0571048 0.3697274
000210 a9 10 4b 3e 41 ee 88 be f0 3f 62 3f 8f d0 09 bf
       0.19830574 -0.26744273 0.8837881 -0.5383386
000220 c1 c6 30 3f b8 2b 45 be 7b 66 80 3f a0 23 8d 3e
       0.69053274 -0.19254959 1.0031275 0.27566242
000230 5e 76 97 3e c8 f1 03 bf 31 8a 82 bf 8e 2a d0 3e
       0.29582494 -0.51540804 -1.0198423 0.40657467
000240 68 05 09 bf 58 5c a6 3f 29 d5 ac 3e fd 30 6c 3c
       -0.53523874 1.2996931 0.33756378 0.014415977
000250 ac be 98 be cf dc c4 be 4d cb 0b bf 00 03 ab be
       -0.2983297 -0.38449714 -0.5460709 -0.33400726
000260 33 b6 3f bf 17 ac a5 3f 2e 5a fd 3e b9 22 5f be
       -0.7488739 1.2943143 0.49482864 -0.2179059
000270 12 b1 ab 3f 4a c6 8a 3f 32 09 e7 be 5f a3 1b be
       1.3413413 1.0841763 -0.45124203 -0.1519904
000280 c8 b2 0c 3e 15 48 80 3f 4b a2 a0 3f 4f 08 ba 3f
       0.13740075 1.0021998 1.2549528 1.4533786
000290 32 35 39 3f bb 1c 73 be 7b 7f 77 3f e7 13 35 be
       0.72346795 -0.23741429 0.96678895 -0.17683373
0002a0 ea b7 02 3f 0d 26 d9 3e 29 97 b2 be 16 01 10 bf
       0.5106188 0.42411843 -0.3488095 -0.56251657
0002b0 0d e4 e0 bd 0d ec 7c 3e cf 8a c5 be cf 87 65 3f
       -0.10980997 0.24699421 -0.38582465 0.8966035
0002c0 3f 59 16 bf b6 98 43 bf cd e2 84 be ac c3 3c 3f
       -0.5872993 -0.76404893 -0.25954285 0.7373607
0002d0 b5 f1 c8 be b7 b1 ae 3f f2 16 d2 be dd eb aa 3f
       -0.39246908 1.3647984 -0.4103313 1.335323
0002e0 24 8d ab 3f b0 a0 3c be 0e 15 34 3f 0c b0 00 bf
       1.3402448 -0.18420672 0.70344627 -0.50268626
0002f0 f6 d1 bd 3f b4 f9 3d be a4 5e bb 3f 11 4d 8f bf
       1.48297 -0.18552285 1.4638257 -1.1195394
000300 6d ce 8f bf 8f 81 1d 3f 54 fb 11 3f dc d7 0b bf
       -1.1234871 0.61525816 0.5702412 -0.5462625
000310 78 a4 54 bf 5d 04 30 3d 55 fb 68 3e 69 7e 03 bf
       -0.8306346 0.04297291 0.22752126 -0.5136476
000320 aa f5 34 be 88 05 5a be 5e 9f 87 3e 5b 61 21 3e
       -0.17671838 -0.21291173 0.26488775 0.15759794
000330 8e ef 64 3f df bf cd 3e c9 57 e5 be 49 c4 81 3c
       0.8942803 0.4018545 -0.44793537 0.015840666
000340 fb 9a c6 3e 18 82 18 bf 9b 5c da be 97 5c 55 be
       0.38790116 -0.5957351 -0.42648777 -0.20836101
000350 2a ea ed bc e9 10 62 bf 7e fb 89 bd bc 41 4d 3e
       -0.029042322 -0.8830705 -0.067374215 0.20044607
000360 f9 e7 b0 3f f5 e4 f8 be 2e 02 4a 3f 18 9d 74 3f
       1.3820792 -0.4861218 0.78909576 0.95552206
000370 02 9f 06 bf 9e 24 e4 be 03 ce 58 be 1c 49 20 bb
       -0.52586377 -0.44559187 -0.21172337 -0.002445764
000380 b6 b3 8d bf c2 8a f4 3f c1 fa a4 be bb 98 3b be
       -1.1070468 1.9104846 -0.3222256 -0.18319981
000390 3f cf cb be ba b8 b2 3e 4e bb 29 be 94 8c 99 bd
       -0.39806554 0.3490656 -0.16575357 -0.07497516
0003a0 c2 81 f5 be d4 62 20 bf e4 95 e2 be 60 cf 7f bf
       -0.4795056 -0.626508 -0.44254982 -0.99925804
0003b0 47 ab c6 bd c4 a5 d3 be 4d 5d b9 3f b6 1b 64 3e
       -0.09700637 -0.41337407 1.4481598 0.22276196
0003c0 4e 28 30 3f 0f c3 8a 3d 56 d2 7c 3f 19 34 05 bf
       0.688115 0.06775486 0.9875845 -0.5203262
0003d0 1c d4 df be fa ae 69 3f e6 c4 a4 3f 13 80 b4 3f
       -0.43716514 0.9128262 1.2872589 1.4101585
0003e0 74 66 42 3e e4 69 f6 3f c0 96 e8 3f 73 a9 4f be
       0.18984395 1.9251065 1.8171005 -0.20279483
0003f0 bb f7 8c bf cf db 0f bf ce 39 ed be 78 0a 1b 3e
       -1.1013101 -0.56194776 -0.46333164 0.15140712

l1.bias f4 [8]
000000 fa 6b 52 3f 59 2d 8d 3f d1 1e 2f 3f eb ff 7f 3f
       0.8219601 1.1029464 0.684064 0.99999875
000010 c0 b2 9e 3f 03 54 9d 3f 79 c2 6e 3f bd aa 8f 3f
       1.23983 1.2291263 0.9326549 1.122398

l2.weight f4 [8, 8]
000000 37 ee 95 be d5 e6 a4 bd 90 fb ad be d3 c0 3d 3e
       -0.29283306 -0.0805184 -0.3398099 0.18530588
000010 77 61 6c be fc 13 9f be 04 9d 35 bb 12 4c cf 3c
       -0.23084055 -0.31069934 -0.0027711997 0.025304828
000020 fd aa 06 bf 48 34 d6 bf 3c d4 19 3f 71 56 4a 3f
       -0.5260466 -1.6734705 0.6008947 0.7903815
000030 b2 60 17 bd 35 72 43 3e a4 f6 36 bd c5 c3 5e be
       -0.03695745 0.19086535 -0.04466881 -0.21754368
000040 f7 b3 62 be 30 9d a7 bc 06 e2 42 3e ba 59 d9 bd
       -0.22138964 -0.020460695 0.19031534 -0.10612817
000050 50 bf c0 3c d0 23 5a be 00 17 49 bb f9 82 3d be
       0.023528725 -0.21302724 -0.0030683875 -0.18506993
000060 90 2b da 3e 86 38 cd bf 69 74 22 bf 8d 98 02 40
       0.4261136 -1.6032875 -0.6345888 2.040561
000070 40 39 37 3f ca dd 63 3f fa ac 1f bf a3 bb 46 3e
       0.7157173 0.890103 -0.62373316 0.19407515
000080 75 fb 1a 40 48 a5 01 bf db e0 25 3f b3 af 5e bd
       2.4215977 -0.50642824 0.6479623 -0.05436678
000090 14 3c f9 bf 6c 55 de 3e a2 6b 02 40 68 11 86 3f
       -1.9471459 0.43424547 2.0378194 1.0474062
0000a0 d6 f2 09 3f 70 08 87 bf 45 06 07 40 2f db c8 bf
       0.53886163 -1.054945 2.1097577 -1.569189
0000b0 11 0c b1 3f ec 48 30 40 0c ac 97 3f c7 00 73 bd
       1.3831807 2.7544508 1.184938 -0.059326913
0000c0 97 dc 9f 3f a9 70 9e bf 9a 4f cc bf f6 ad 07 40
       1.2489194 -1.2378131 -1.5961792 2.1199927
0000d0 9d 42 b9 3f 73 27 b9 3d 36 8b 6c bd 0e f6 c6 3f
       1.4473454 0.090407275 -0.05774995 1.554384
0000e0 74 3f f4 3e 6c 3f 44 40 d6 9e 2e be d8 0b b6 3e
       0.4770466 3.066371 -0.17052779 0.3555591
0000f0 f7 bb cf 3f 73 c3 8a bf 20 16 b9 3f 2f c8 02 40
       1.6229237 -1.0840896 1.4459877 2.0434682

l2.bias f4 [8]
000000 fa 5a b9 be 88 83 a0 bd 1c 2e 71 be 85 05 0d 3f
       -0.36202222 -0.078375876 -0.23552746 0.5508655
000010 a7 aa 00 be f5 ba 8e 3f 40 12 81 3f 7c a7 5d 3e
       -0.12565099 1.1150805 1.0083694 0.21645921

l3.weight f4 [31, 8]
000000 37 5f 55 be 8c 58 8d be f0 59 a3 3c 36 80 84 3e
       -0.20837103 -0.27606618 0.019940346 0.25879067
000010 36 1c 37 3e f1 0a 20 c0 59 a3 05 3f 98 09 14 bf
       0.17881855 -2.5006678 0.52202374 -0.5782714
000020 b6 48 ed 3d 8a 34 16 c0 84 ca ba bd 2b a1 62 bf
       0.11586134 -2.3469567 -0.09120658 -0.8852717
000030 57 f3 4c 3f ae b8 07 c0 4a 21 b4 3e 3b c2 a3 be
       0.8005881 -2.120647 0.35181648 -0.31984124
000040 22 f0 a0 3e d5 44 6d bd 94 90 b1 3d 30 cc 15 c0
       0.31433207 -0.05792697 0.08670154 -2.3405876
000050 01 60 96 be e8 88 2a 3f 18 81 c9 bf 31 ca 8e bf
       -0.2937012 0.6661515 -1.5742521 -1.1155454
000060 5b 9d 28 3e a3 21 0e 3f 28 b4 70 bd 22 73 3b be
       0.16466276 0.55520076 -0.05876556 -0.18305638
000070 57 d8 2d c0 b0 50 8c 3f 82 52 1f c0 c7 c5 1b c0
       -2.7163293 1.0962124 -2.4894109 -2.4339464
000080 c6 b1 89 3e 2a 9e 73 3e 98 7e 13 be 96 60 12 c0
       0.26893443 0.23790804 -0.1440376 -2.2871451
000090 bf 17 c6 bc b6 ca 7c bf d1 b2 b1 3d d8 7c 92 3e
       -0.024181245 -0.9874681 0.08676685 0.28610873
0000a0 36 bb 4b 3e 1c ce 21 be 2f 5a 8a be b2 6a 3d bf
       0.19895634 -0.1580128 -0.2702193 -0.7399093
0000b0 af 39 65 3f 2e 2c bd bf f8 e8 23 c0 ec 54 af 3e
       0.89541143 -1.4779108 -2.5610943 0.34244478
0000c0 4b 64 82 be 58 9b 2c c0 27 1e 87 3e d4 e4 fe be
       -0.25467142 -2.6969814 0.26390192 -0.49783957
0000d0 8f eb 35 be a2 6d 46 c0 fb bd ce 3e bc 92 8d 3e
       -0.1776564 -3.1004415 0.4037932 0.27651012
0000e0 29 43 4e be fa 6a 3d bd 9e 2d 3c be ad b9 34 3d
       -0.20142807 -0.0462446 -0.18376777 0.044122387
0000f0 ec af 22 be 02 fe 04 3f e8 7a 16 bf 9e ee 5c c0
       -0.15887421 0.51950085 -0.5878129 -3.452064
000100 8f a3 28 be 10 7b 27 c0 5b 7a 83 3e 67 22 b3 3e
       -0.16468643 -2.6168861 0.25679287 0.34987184
000110 68 b0 27 c0 dc 57 dc bf e8 06 55 3f db 19 3c bd
       -2.620142 -1.7214313 0.83213663 -0.045923095
000120 7c a6 e4 bc da 9b 0e c0 d4 49 c6 3d 3a c3 8b bf
       -0.027911417 -2.2282624 0.0968205 -1.0918953
000130 ac b5 de bf 5f 11 81 bf 3b 0d 12 3f 78 94 fe 3e
       -1.7399192 -1.0083426 0.5705144 0.49722648
000140 62 10 aa be ee f6 8c c0 0c ad a3 be b7 47 1a bf
       -0.33215624 -4.405143 -0.31967962 -0.6026568
000150 a9 dc db 3e 8a e8 25 bf 85 7a a4 3e b7 c4 18 bf
       0.42941788 -0.6480795 0.32124725 -0.59675163
000160 58 93 92 be ce 59 f8 bf 36 61 8d be 45 e1 b0 3c
       -0.2862804 -1.9402406 -0.2761323 0.021591792
000170 d0 f3 b5 be ec ed 52 3e fc d6 5d be 25 2b 71 bf
       -0.35537577 0.20598572 -0.21664041 -0.9420646
000180 2a 41 52 3e 43 a9 86 c0 f7 74 0c be 03 31 d8 be
       0.2053267 -4.208162 -0.13716494 -0.42224893
000190 2e 67 2a bf c0 b8 97 be a9 50 73 3d 7a d2 43 3d
       -0.6656369 -0.2963314 0.059403095 0.047808148
0001a0 dc 1a 15 be 73 82 3a bf 01 11 5b be 0f 46 0e c0
       -0.14561027 -0.728553 -0.21393205 -2.223026
0001b0 ba 29 1f c0 6b 4f 47 3d 25 66 cb bf 9a 59 19 3f
       -2.4869218 0.048659723 -1.5890547 0.59902346
0001c0 d9 ad 00 3e df d0 6b c0 46 0e 6d 3e eb 20 3a c0
       0.12566318 -3.6846235 0.23149976 -2.9082592
0001d0 2d c9 0f c0 45 16 81 3f f1 f7 ef bf 63 eb c3 be
       -2.2466538 1.0084921 -1.8747541 -0.38265523
0001e0 3b 15 7f be 10 fc 28 3f 7e 52 5f 3e c9 07 17 3e
       -0.24910443 0.66009617 0.21808812 0.14749064
0001f0 5c 9a 34 c0 48 57 17 3f c0 11 9e be f8 78 ff bf
       -2.8219213 0.59117556 -0.30872917 -1.9958792
000200 ad cd 8e be 48 1f 28 c0 48 32 ba bd 76 29 42 3f
       -0.27891293 -2.6269093 -0.09091622 0.75844514
000210 9e e8 af bf f1 81 2a 3e 6b be bf 3e 26 96 13 c0
       -1.3742864 0.16651131 0.37449965 -2.3060393
000220 7a 6e c3 be 2c 5a 02 c0 32 16 4b 3e 6b 04 1a 3e
       -0.38170224 -2.0367537 0.19832686 0.15040748
000230 48 18 17 3f b9 d3 45 be 46 66 d0 bd 8f 75 0a c0
       0.59021425 -0.19319047 -0.10175757 -2.1634252
000240 ab c9 94 be 79 ba 69 c0 8b 13 86 be fc f7 cc bf
       -0.2906011 -3.6520064 -0.26186785 -1.6013179
000250 c5 e9 45 3f 6e 4b 41 3e c3 e8 bd be ee 22 b8 bf
       0.7730983 0.1887643 -0.37091646 -1.438566
000260 31 89 fa 3d a5 ee 8b be 48 d9 95 be 8e 80 14 c0
       0.122331984 -0.2733051 -0.29267335 -2.3203464
000270 22 07 82 3d 0f f6 88 be 29 45 e7 bf bd 40 9b 3e
       0.06349017 -0.26750228 -1.8067981 0.3032283
000280 b0 b0 a6 bd 56 01 14 bb 13 59 ab 3e 3d c4 4c c0
       -0.08139169 -0.0022583804 0.33466396 -3.1994774
000290 9f ed 1f 3f a3 c5 c3 be ea a6 d0 bd 90 6a b7 be
       0.62471956 -0.38236722 -0.10188086 -0.35823488
0002a0 28 a8 f8 3d 70 6a 68 bd 1d 21 98 3e c2 a1 3a c0
       0.12141448 -0.05674213 0.29712763 -2.916123
0002b0 04 9e 61 3f 45 91 eb bf 09 63 64 be 65 e9 67 3d
       0.8813174 -1.8403708 -0.22303404 0.056619067
0002c0 9b 5c 7e be d2 a4 fe bf d7 3b 93 3e d5 88 10 3f
       -0.24840014 -1.9894049 0.28756592 0.5645879
0002d0 ac 88 a2 be 3c 31 44 bf db f5 ba 3e 97 c4 53 bf
       -0.31744897 -0.76637626 0.36515698 -0.8272185
0002e0 80 9e 1d be f0 e9 d8 bd b0 47 8d be a1 17 34 bf
       -0.15392494 -0.10591495 -0.27593756 -0.70348555
0002f0 70 37 eb 3e a4 84 07 3f e9 a5 c6 bf 05 33 2f c0
       0.45940733 0.5293677 -1.5519382 -2.737489
000300 32 97 75 be f9 3e 41 c0 2a 8b 36 3e f4 20 e4 be
       -0.23983458 -3.0194685 0.17826524 -0.4455639
000310 7d 9a 3b c0 90 6c 2c 3f fe 6f 03 3e 4f 13 3e bf
       -2.9313042 0.67353153 0.1283569 -0.7424821
000320 e6 ba d1 be fd 23 8d bd a4 fa 8b bd b6 ad 15 c0
       -0.40962905 -0.0689163 -0.06834915 -2.3387275
000330 be fb 94 3e 88 13 4f c0 19 eb 13 bf 5a 78 26 3f
       0.29098314 -3.235567 -0.57780606 0.6502739
000340 fb 02 25 be b5 2d 69 3e 9d 6e 49 be d7 8e 2b c0
       -0.16114418 0.22771342 -0.19671102 -2.6805933
000350 58 8f fb bf af e1 1d c0 7e 6c e9 bf 74 42 8b 3f
       -1.965312 -2.4668996 -1.8236234 1.0879655
000360 b9 ff c9 bd 6a ac 4c c0 d5 63 a7 3e 5d 37 25 c0
       -0.09863228 -3.1980233 0.32693353 -2.581504
000370 5f f3 1e 3f d4 e0 2e 3e f0 69 0d c0 de 25 11 bf
       0.62090105 0.17077953 -2.209591 -0.56698406
000380 33 36 c7 ba 04 68 c7 3f c3 f5 93 3e 23 3d 46 3f
       -0.0015198648 1.5578618 0.2889844 0.7743704
000390 09 28 60 bf f7 cc e0 bf 04 50 19 3f cc 7e 01 c0
       -0.8756109 -1.756255 0.5988772 -2.023364
0003a0 27 73 a0 be 45 33 88 c0 9c ab a2 3d 50 72 c5 bf
       -0.31337854 -4.2562585 0.07942888 -1.542551
0003b0 fa 73 45 be a6 b7 af 3e df 23 e9 be aa 7b ca be
       -0.19282523 0.343198 -0.4553518 -0.39547473
0003c0 36 25 91 3b 36 6a cd 3d 30 3a b7 3c 74 90 c6 3e
       0.0044294847 0.10030024 0.022366613 0.38782084
0003d0 14 d7 20 c0 06 98 04 bf 3d 8f 22 3f 81 78 2b bf
       -2.5131273 -0.5179447 0.63499814 -0.6698075

l3.bias f4 [31]
000000 21 9a 82 be ff a3 ee be 3e 3c fb 3b cb ae 16 3f
       -0.25508216 -0.46609494 0.0076670935 0.5886046
000010 46 84 e9 bd 45 f4 8f 3d e1 37 f4 be 1b 15 28 be
       -0.11402182 0.070290126 -0.47698882 -0.16414301
000020 41 78 2e 3e f5 f3 39 3e 09 01 41 be b7 5e a5 be
       0.1703806 0.18159468 -0.18848051 -0.32298824
000030 bd 79 fc bb 8f 78 fd 3e b1 a7 62 3f dc fb 45 be
       -0.007704942 0.4950604 0.88537127 -0.19334358
000040 03 22 51 be 97 37 4a 3e a7 a5 1a 3e 14 8a ff bc
       -0.2042313 0.19747768 0.15102254 -0.03119377
000050 d9 33 05 bf 10 4d 54 bf 5d 18 07 3e b5 17 3b bd
       -0.5203224 -0.8293009 0.13192888 -0.045676906
000060 e2 ad 82 3e 94 e0 66 3d 8b 4f 3e 3f a2 c8 11 bf
       0.25523287 0.05636652 0.7434012 -0.56946766
000070 b8 3e ed 3e a1 41 26 bf 12 d8 5d 3d
       0.46336913 -0.6494389 0.05416114
